{"class_name": "Sequential", "backend": "tensorflow", "keras_version": "2.1.0", "config": [{"class_name": "Conv2D", "config": {"batch_input_shape": [null, 200, 200, 1], "bias_initializer": {"class_name": "Zeros", "config": {}}, "kernel_regularizer": {"class_name": "L1L2", "config": {"l1": 0.0, "l2": 0.009999999776482582}}, "kernel_constraint": null, "use_bias": true, "data_format": "channels_last", "filters": 64, "trainable": true, "strides": [1, 1], "bias_constraint": null, "kernel_initializer": {"class_name": "VarianceScaling", "config": {"distribution": "uniform", "scale": 1.0, "mode": "fan_avg", "seed": null}}, "name": "conv2d_1", "activity_regularizer": null, "dtype": "float32", "dilation_rate": [1, 1], "padding": "valid", "activation": "relu", "bias_regularizer": null, "kernel_size": [5, 5]}}, {"class_name": "MaxPooling2D", "config": {"name": "max_pooling2d_1", "padding": "valid", "pool_size": [2, 2], "data_format": "channels_last", "trainable": true, "strides": [2, 2]}}, {"class_name": "Conv2D", "config": {"bias_initializer": {"class_name": "Zeros", "config": {}}, "kernel_regularizer": {"class_name": "L1L2", "config": {"l1": 0.0, "l2": 0.009999999776482582}}, "kernel_constraint": null, "use_bias": true, "data_format": "channels_last", "filters": 128, "trainable": true, "strides": [1, 1], "bias_constraint": null, "kernel_initializer": {"class_name": "VarianceScaling", "config": {"distribution": "uniform", "scale": 1.0, "mode": "fan_avg", "seed": null}}, "name": "conv2d_2", "activity_regularizer": null, "dilation_rate": [1, 1], "padding": "valid", "activation": "relu", "bias_regularizer": null, "kernel_size": [3, 3]}}, {"class_name": "MaxPooling2D", "config": {"name": "max_pooling2d_2", "padding": "valid", "pool_size": [2, 2], "data_format": "channels_last", "trainable": true, "strides": [2, 2]}}, {"class_name": "Conv2D", "config": {"bias_initializer": {"class_name": "Zeros", "config": {}}, "kernel_regularizer": {"class_name": "L1L2", "config": {"l1": 0.0, "l2": 0.009999999776482582}}, "kernel_constraint": null, "use_bias": true, "data_format": "channels_last", "filters": 256, "trainable": true, "strides": [1, 1], "bias_constraint": null, "kernel_initializer": {"class_name": "VarianceScaling", "config": {"distribution": "uniform", "scale": 1.0, "mode": "fan_avg", "seed": null}}, "name": "conv2d_3", "activity_regularizer": null, "dilation_rate": [1, 1], "padding": "valid", "activation": "relu", "bias_regularizer": null, "kernel_size": [3, 3]}}, {"class_name": "MaxPooling2D", "config": {"name": "max_pooling2d_3", "padding": "valid", "pool_size": [2, 2], "data_format": "channels_last", "trainable": true, "strides": [2, 2]}}, {"class_name": "Flatten", "config": {"name": "flatten_1", "trainable": true}}, {"class_name": "Dense", "config": {"units": 50, "bias_initializer": {"class_name": "Zeros", "config": {}}, "kernel_regularizer": {"class_name": "L1L2", "config": {"l1": 0.0, "l2": 0.009999999776482582}}, "kernel_constraint": null, "trainable": true, "bias_constraint": null, "kernel_initializer": {"class_name": "VarianceScaling", "config": {"distribution": "uniform", "scale": 1.0, "mode": "fan_avg", "seed": null}}, "name": "dense_1", "activity_regularizer": null, "bias_regularizer": null, "use_bias": true, "activation": "softmax"}}]}